BabyUnet_denoise_old.pth (torch_old, 303806 bytes, 61 tensors)

conv1.norm1.weight f4 [16]
0	0x3f273d91	0.6532832
1	0x3e98af29	0.29821137
2	0x3e226a82	0.15860942
3	0x3ecfd562	0.40592486
4	0x3dd319a1	0.10307623
5	0x3e1a498c	0.15067118
6	0x3f473f43	0.77830905
7	0x3dda3b8e	0.106558904
8	0x3f04a075	0.5180734
9	0x3db3568b	0.08756741
10	0x3e18eb71	0.14933564
11	0x3e700ff2	0.23443583
12	0x3e433942	0.19064811
13	0x3e1eb642	0.15499213
14	0x3ddca215	0.10773102
15	0x3ed3806b	0.41308913

conv1.norm1.bias f4 [16]
0	0xbcc03bf0	-0.02346608
1	0xbcb2271e	-0.021747168
2	0xbc9a871e	-0.018863257
3	0x3bf1673c	0.007367043
4	0xbce008b3	-0.027347898
5	0xbcae0eee	-0.021247353
6	0xba7328c0	-0.00092757866
7	0x3ab90ff8	0.0014119139
8	0xbd2ade07	-0.041715648
9	0x3cef6078	0.029220805
10	0xbd2ca901	-0.042153362
11	0x3c40824d	0.011749816
12	0xbce8c05d	-0.028412038
13	0xbd9406af	-0.07227837
14	0x3b6daf96	0.0036267987
15	0x3c8a5489	0.016886013

conv1.norm1.running_mean f4 [16]
0	0xbd8c56c5	-0.068524875
1	0x3afceb14	0.0019296133
2	0xbd7430f5	-0.059617
3	0xbf27e526	-0.6558403
4	0xbdcdbde5	-0.10045985
5	0x3d941118	0.07229823
6	0xbdc46b45	-0.095907725
7	0xbda39e12	-0.07989134
8	0x3d837b34	0.064199835
9	0xbf40cc7b	-0.7531201
10	0xbe5b3cb1	-0.2140987
11	0xbe36de4a	-0.17858234
12	0xbd85bf9a	-0.06530686
13	0xbd5363da	-0.051608898
14	0x3e7d0887	0.24710284
15	0xbf337028	-0.7009301

conv1.norm1.running_var f4 [16]
0	0x3c652389	0.013985523
1	0x3c0becab	0.008540313
2	0x3acf4376	0.0015812952
3	0x3d41ce78	0.047316045
4	0x3a62c5e9	0.0008650707
5	0x3b0210ae	0.0019846368
6	0x3b7d90f0	0.0038691126
7	0x3a9930a9	0.0011687475
8	0x3c315cfc	0.010825392
9	0x3dc78a30	0.09743154
10	0x39b513ef	0.00034537862
11	0x3c8422c6	0.016129863
12	0x3aaa6349	0.001299956
13	0x3bb60682	0.005554975
14	0x3b80f486	0.0039353995
15	0x3d051fda	0.03250108

conv1.norm2.weight f4 [16]
0	0x3e7b16f2	0.24520472
1	0x3d8eafb6	0.06967108
2	0x3f3874a3	0.72052974
3	0x3f2b69bc	0.6695821
4	0x3f702272	0.9380256
5	0x3eacb467	0.33731386
6	0x3ec5c9c2	0.38630491
7	0x3e8eb80f	0.278748
8	0x3e8cc516	0.27494115
9	0x3f5fba13	0.873933
10	0x3f4756ef	0.77867025
11	0x3edbc071	0.4292026
12	0x3ea604d7	0.32425568
13	0x3f1e1846	0.6175579
14	0x3f33d149	0.7024122
15	0x3e7e20d1	0.24817206

conv1.norm2.bias f4 [16]
0	0xbda1e70e	-0.07905398
1	0xbc44702d	-0.011989635
2	0xbb4d1c7b	-0.0031297493
3	0x3caccff5	0.021095255
4	0xbd03222a	-0.032015003
5	0xbd811b83	-0.063040756
6	0xbce7d309	-0.028298872
7	0xbda548cc	-0.080705255
8	0xbce815cf	-0.028330712
9	0x3c8689c3	0.016423112
10	0xbd6c622b	-0.057710808
11	0xbcbc9a0d	-0.023022676
12	0xbcd80a87	-0.026372207
13	0xbd254b14	-0.040354803
14	0xbc73ae5c	-0.0148731135
15	0xbbef6d5a	-0.007306737

conv1.norm2.running_mean f4 [16]
0	0xbc6c7f07	-0.014434583
1	0xbd2c90cc	-0.042130277
2	0x3e9d6e89	0.30748394
3	0xbdbfe776	-0.093703195
4	0xbdc0b2d8	-0.09409112
5	0x3de8e93c	0.11372611
6	0x3da89aa3	0.082326196
7	0x3dc5cd87	0.09658342
8	0x3ddc5939	0.10759205
9	0xbe1dc2ae	-0.15406296
10	0xbb5309af	-0.0032201817
11	0x3e11881d	0.1421208
12	0xbdc1664f	-0.09443342
13	0xbe230c3b	-0.15922634
14	0x3e93afa0	0.2884493
15	0xbe91bfb1	-0.2846656

conv1.norm2.running_var f4 [16]
0	0x3df4d2c8	0.11954266
1	0x3e1196bb	0.14217655
2	0x3d8acae6	0.06776981
3	0x3dc9bdf6	0.09850685
4	0x3ccdb0eb	0.025108775
5	0x3db481c0	0.0881381
6	0x3d027f6c	0.0318598
7	0x3c960734	0.018313982
8	0x3d49bdea	0.04925338
9	0x3cc37c9b	0.023863127
10	0x3e858645	0.26079002
11	0x3cbcc085	0.02304102
12	0x3c7f53f6	0.015583983
13	0x3cc244cc	0.023714446
14	0x3d80a84f	0.06282102
15	0x3d996266	0.07489471

conv1.conv1.weight f4 [16, 1, 3, 3]
0	0x3e66cf48	0.22540009
1	0xbd3ec8ff	-0.046578404
2	0x3e3defdb	0.18548529
3	0xbea0a6da	-0.31377298
4	0xbddfd874	-0.10929957
5	0x3e201534	0.15633088
6	0x3d294cd9	0.041333053
7	0xbeb7957a	-0.3585623
8	0xbe974db0	-0.29551458
9	0x3d8afd4f	0.06786596
10	0x3e21d00b	0.15802018
11	0x3e202bf5	0.15641768
12	0x3d6fd286	0.05855038
13	0xbe1afb4a	-0.15134922
14	0xbe0da6bd	-0.13833137
15	0xbe73cab6	-0.23807797
16	0xbeaa3f0e	-0.33251232
17	0x3ce4d6ef	0.02793452
18	0xbb8150b4	-0.003946388
19	0x3cfbe880	0.030750513
20	0xbe07b3c9	-0.13252176
21	0x3e39c02f	0.18139718
22	0x3be17f8a	0.006881659
23	0x3d201941	0.039086584
24	0x3d387d1c	0.04504119
25	0xbde3a859	-0.11116094
26	0xbe54460b	-0.20729844
27	0x3e629df9	0.22130574
28	0x3baca722	0.005268947
29	0xbe92ce3e	-0.28672975
30	0xbd8943d4	-0.0670239
31	0xbe1c58d4	-0.1526826
32	0xbea40fa7	-0.32043192
33	0xbc7e9808	-0.015539177
34	0xbe36e6d5	-0.17861493
35	0xbe3bab31	-0.18327023
36	0xbdcfe013	-0.10150161
37	0x3e2c05d6	0.16799101
38	0x3e472517	0.19447742
39	0x3e219529	0.15779556
40	0xbea90f8c	-0.33019674
41	0xbe7d6999	-0.24747314
42	0xbe0b49a1	-0.13602306
43	0x3e79a8e7	0.24380837
44	0xbd42bb70	-0.047542036
45	0x3c3d12da	0.011540139
46	0xbea2ed0e	-0.31821483
47	0x3ded8dee	0.115993366
48	0x3d9a6906	0.07539563
49	0xbe3e037c	-0.18556017
50	0xbe487efb	-0.19579689
51	0x3e27c363	0.16383128
52	0xbaca96e0	-0.0015456341
53	0x3e24cc14	0.16093475
54	0x3e734279	0.23755826
55	0x3e0d830b	0.1381952
56	0x3d67edfe	0.05662345
57	0xbdcb86f2	-0.09937848
58	0xbe298dce	-0.16558
59	0xbdd9f819	-0.10643024
60	0x3e01e9cc	0.12686843
61	0x3e710958	0.2353872
62	0xbe3ad4d1	-0.18245246
63	0x3d6148f5	0.055001218
64	0x3d7f3fce	0.06231671
65	0xbde8e402	-0.11371614
66	0xbe4795fd	-0.1949081
67	0x3c4c4faa	0.012470165
68	0xbe02ce71	-0.12774064
69	0x3e620e87	0.22075854
70	0x3d19a24c	0.037508294
71	0x3e3002fb	0.17188637
72	0x3e987fde	0.29785055
73	0xbe293c0e	-0.16526815
74	0x3d9836da	0.07432337
75	0x3e80f5ac	0.25187433
76	0xbe4ee961	-0.20206214
77	0xbe28b203	-0.16474156
78	0x3e974f50	0.29552698
79	0xbd9346f9	-0.07191271
80	0x3e01f438	0.12690818
81	0x3e4e12e6	0.20124397
82	0xbe52b762	-0.20577767
83	0xbe751ac1	-0.23935987
84	0xbdf18d29	-0.11794502
85	0xbea1d398	-0.31606746
86	0xbe8b1c02	-0.27169806
87	0xbe94ae14	-0.2903906
88	0xbd9a4682	-0.075329795
89	0xbddad445	-0.106850185
90	0xbdcd3e18	-0.10021609
91	0x3e0966ea	0.13418165
92	0xbe930b7c	-0.287197
93	0x3e0fa16d	0.14026423
94	0x3c45acee	0.012065155
95	0x3e7d774f	0.24752544
96	0xbb2f9072	-0.0026788977
97	0x3d1609de	0.036630504
98	0xbe349647	-0.17635451
99	0xbb7fa131	-0.003900599
100	0x3e5b07d2	0.21389702
101	0xbe3a9384	-0.18220335
102	0x3cb2ef2c	0.021842562
103	0xbe9ec6ff	-0.31011197
104	0x3dc0f0ec	0.09420952
105	0x3cc81839	0.024425613
106	0xbe5a7ddd	-0.21337076
107	0xbe5b37dc	-0.21408027
108	0xbde55c80	-0.111992836
109	0x3e8a4ee3	0.2701331
110	0x3e930c78	0.2872045
111	0xbcde278d	-0.027118469
112	0xbe89c9d2	-0.2691179
113	0x3de3cba7	0.11122828
114	0x3e8f0b1b	0.2793816
115	0xbe0adc7f	-0.13560675
116	0xbe997a6b	-0.2997621
117	0x3e90c595	0.28275743
118	0x3e1edf39	0.1551484
119	0xbe88693f	-0.26642796
120	0xbdf3a6d7	-0.118970565
121	0xbea3155e	-0.3185224
122	0x3e1f84ee	0.15578052
123	0xbe4173f8	-0.18891895
124	0xbe342e81	-0.17595865
125	0x3e19da6b	0.15024726
126	0xbdf3ff5a	-0.11913939
127	0x3e7034e5	0.23457678
128	0x3e3f7ff4	0.18701154
129	0xbdeb3568	-0.11484796
130	0xbd6e71ff	-0.058214184
131	0x3e34586e	0.17611858
132	0xbe9130ba	-0.28357488
133	0xbc5d7269	-0.013516047
134	0x3e65d8a0	0.22445917
135	0xbeb632b1	-0.3558555
136	0xbe6646da	-0.22487965
137	0x3dd9785c	0.1061866
138	0xbe1589fc	-0.14603418
139	0x3dfecd2c	0.12441477
140	0xbdc8c55e	-0.0980327
141	0xbe576ca7	-0.21037541
142	0x3e6b1b34	0.22959596
143	0xbe705a82	-0.23472026

conv1.conv1.bias f4 [16]
0	0x3e6d4f50	0.23174787
1	0x3e6e4380	0.23267937
2	0x3cf7608f	0.03019741
3	0xbdb346ce	-0.08753739
4	0xbd2fc90b	-0.04291634
5	0x3e3291c0	0.17438412
6	0xbe7b6a2e	-0.24552223
7	0xbe1d8125	-0.15381296
8	0xbe440c5f	-0.19145344
9	0x3d8f770e	0.0700513
10	0xbe5b8f03	-0.21441273
11	0x3e1be03d	0.15222259
12	0xbe001437	-0.12507711
13	0x3e0cdcab	0.13756053
14	0x3de7b02c	0.11312899
15	0xbe6e2638	-0.23256767

conv1.conv2.weight f4 [16, 16, 3, 3]
0	0x3b830811	0.0039987643
1	0xbd67a6ad	-0.05655544
2	0xbd6547c0	-0.05597663
3	0x3cc7f9c1	0.024411084
4	0x3d95e54e	0.07319127
5	0xbd74b81b	-0.05974589
6	0xbd45cfed	-0.048293997
7	0xbbcb6bee	-0.0062079346
8	0x3d618649	0.055059705
9	0x3cdb8de9	0.026801066
10	0x3d30c20b	0.043153804
11	0xbce8aa3e	-0.02840149
12	0x3cb09bca	0.021558661
13	0x3d5f864f	0.054571446
14	0xbc85355c	-0.016260795
15	0x3ca13a03	0.019680982
16	0xbd05266a	-0.032507338
17	0xbd620e45	-0.05518939
18	0xbdbf00a7	-0.09326296
19	0x3d856793	0.06513896
20	0xbe0c9d45	-0.13731869
21	0xbccf578e	-0.025310304
22	0x3d1aa6d5	0.03775676
23	0xbbe1edb0	-0.0068947896
24	0x3d9a292e	0.07527386
25	0xbd43d225	-0.04780783
26	0xbd17e3da	-0.03708253
27	0xbd45e6ed	-0.04831593
28	0xbcc06bfa	-0.023488987
29	0xbd1cb8fd	-0.038262356
30	0xbca73512	-0.020411048
31	0xbd733615	-0.05937775
32	0xbd6c6d20	-0.057721257
33	0xbac9542d	-0.0015360169
34	0x3c919543	0.017771369
35	0xbbdd846d	-0.006760171
36	0x3dc68126	0.09692602
37	0xba47dfcb	-0.00076245953
38	0x3cf3c40a	0.029756565
39	0x3e055957	0.13022362
40	0x3c87794a	0.016537327
41	0xbd69c155	-0.05706914
42	0xbd9431c7	-0.07236057
43	0xbd98c3d8	-0.07459229
44	0xbbcdb9c7	-0.00627825
45	0xbda022b1	-0.07819117
46	0xbd7f5838	-0.06233999
47	0xbcc25130	-0.023720354
48	0xbc93a3c6	-0.01802243
49	0x3c78d688	0.015187867
50	0x3d7ce6ef	0.061743673
51	0xbdcf8a0e	-0.10133754
52	0x3d9f79f7	0.07786935
53	0x3af158c6	0.0018413297
54	0x3d0b2b2a	0.03397671
55	0xbd5e22a4	-0.054232255
56	0xbcd2bc61	-0.025724592
57	0xbd718c0d	-0.058971453
58	0x3d16ac96	0.036785685
59	0x3d86f04e	0.06588803
60	0x3d8f13bb	0.06986185
61	0x3dad5764	0.08463934
62	0xb803ce6e	-3.1425086e-05
63	0x3d30a654	0.043127373
64	0xba9e3c08	-0.0012072334
65	0xbc45babb	-0.012068446
66	0xbd892714	-0.06696907
67	0x3d48893a	0.048958994
68	0x3d920163	0.07129171
69	0x3d12d494	0.03584726
70	0xbd3b19ec	-0.045679018
71	0x3cecda8c	0.028912805
72	0xbcd18606	-0.025576603
73	0x3ddbf95b	0.1074092
74	0x3dd572fb	0.104223214
75	0x3d280633	0.041021537
76	0xbc1102ca	-0.008850763
77	0x3d209166	0.039201163
78	0xbd85a908	-0.06526381
79	0xbd59fa7c	-0.053217396
80	0x3d019754	0.03163846
81	0xbd455c3c	-0.048183665
82	0xbced4bab	-0.028966745
83	0xbe09bb85	-0.1345044
84	0xbdbadf74	-0.091246516
85	0xbe054f44	-0.13018519
86	0xbda08f75	-0.07839862
87	0x3ccb17eb	0.024791678
88	0xbd09ddd9	-0.033658836
89	0xbd8169a8	-0.063189805
90	0x3d8f7665	0.07005004
91	0x3dae2191	0.08502496
92	0xbd9cd46f	-0.07657706
93	0x3d035708	0.03206542
94	0x3d67d50b	0.056599658
95	0xbd7faa5e	-0.062418334
96	0x3c29b5fc	0.01035833
97	0x3d541883	0.05178119
98	0xbe9098a2	-0.2824145
99	0xbd4ff7ae	-0.050773315
100	0xbd7c688a	-0.061623134
101	0x3d011456	0.031513534
102	0xbd7bc94e	-0.061471276
103	0x3c8aba49	0.01693453
104	0xbdab5300	-0.0836544
105	0x3da3831a	0.0798399
106	0xbd89c745	-0.06727461
107	0xbd3d67d5	-0.0462416
108	0xbe34eda9	-0.17668785
109	0xbcf3e8a0	-0.02977401
110	0x3ccf9206	0.025338184
111	0x3d9b50cb	0.075837694
112	0xbb70e2c2	-0.0036756252
113	0xbd3b2bf2	-0.045696206
114	0x3dfec5e9	0.12440092
115	0x3da4ce7b	0.080471955
116	0xbd73bde2	-0.05950726
117	0xbda9eac9	-0.08296735
118	0xbc88d697	-0.016703887
119	0x3c3e7b9c	0.01162615
120	0xbd9bdb10	-0.07610142
121	0xbcea686f	-0.028614251
122	0xbbf555a3	-0.0074870153
123	0x3c88ae5b	0.016684702
124	0xbc20a2f5	-0.009804477
125	0xbd36b655	-0.04460748
126	0x3dcefebf	0.10107183
127	0x3d6c02b8	0.05761978
128	0xbd8b2df4	-0.06795874
129	0x3e268b9c	0.16264194
130	0x3b92d78e	0.0044812625
131	0x3d5998a2	0.053124078
132	0x3d29eaa0	0.04148352
133	0x3df31442	0.11869098
134	0x3c37c6d2	0.011216836
135	0x3c96579f	0.018352328
136	0xbc7b363f	-0.0153327575
137	0xbdf4b584	-0.11948684
138	0x3cf99a05	0.03046895
139	0xbda9b76c	-0.08286938
140	0xbdc13e5e	-0.09435724
141	0x3d63e3ea	0.055637278
142	0xbbe68285	-0.007034602
143	0xbda3e7c3	-0.080031894
144	0xbbeec82d	-0.0072870464
145	0xbd5c736f	-0.053821024
146	0x3cce4257	0.025178118
147	0x3c8c4e24	0.017127104
148	0x3cb79301	0.022408964
149	0x3d05941c	0.03261195
150	0x3ca4d7b4	0.020122387
151	0x3d306f3d	0.043074835
152	0x3cf43674	0.029811122
153	0x3c12d035	0.008960773
154	0x3d5b1f28	0.05349651
155	0xbd8ace35	-0.06777612
156	0x3c467f20	0.01211527
157	0x3d807327	0.062719636
158	0x3c797e76	0.015227905
159	0xbd53d067	-0.05171242
160	0xbd32ed78	-0.0436835
161	0x3cc4c156	0.024017971
162	0xbdda9ab4	-0.106740385
163	0x3d08f666	0.03343811
164	0xbcc49df9	-0.024001108
165	0x3cba23e6	0.022722196
166	0x3db17096	0.08664052
167	0x3b13df63	0.0022563569
168	0xbc73c14a	-0.014877627
169	0x3dd84215	0.10559479
170	0x3ce705bd	0.028200978
171	0x3cfcaa47	0.030842913
172	0x3e2044f1	0.15651299
173	0xbdb451a5	-0.08804635
174	0xbd86045b	-0.065437995
175	0x3df82561	0.121165045
176	0xbd235454	-0.039875343
177	0x3d2d5762	0.042319663
178	0x3ded9f85	0.116026916
179	0xbd7c2c1c	-0.061565503
180	0xbdc8e203	-0.09808733
181	0x3cfb545a	0.03067987
182	0xbd4ac2e8	-0.049502283
183	0x3d2ac1c6	0.041688703
184	0x3d8d452d	0.0689796
185	0xbd231777	-0.0398173
186	0x3d32a11d	0.04361068
187	0xbccaf106	-0.024773132
188	0xbd55028a	-0.052004375
189	0x3d756a3d	0.05991577
190	0x3ba81c6a	0.0051303403
191	0xbd23d21d	-0.0399953
192	0xbdb7cf74	-0.089751154
193	0x3cd48147	0.02594055
194	0x3d6ca056	0.057770096
195	0xbd7fb041	-0.06242395
196	0xbdb1a081	-0.08673192
197	0xbc8b0b12	-0.016973052
198	0xbd2f3d8b	-0.0427833
199	0xbc92e1cf	-0.01792994
200	0xbd9b0a6f	-0.075703494
201	0xbd3772f5	-0.044787366
202	0xbda2288d	-0.07917891
203	0xbd8fab88	-0.07015139
204	0xbdce14d4	-0.100625664
205	0x3d24ad60	0.040204406
206	0xbd64fbcb	-0.05590419
207	0xbd3defaf	-0.04637116
208	0xbdbe66f7	-0.09296983
209	0xbdfcbd7f	-0.12340831
210	0x3c3b0e4d	0.011416984
211	0xbdd11d51	-0.1021067
212	0xbd7039ee	-0.058648996
213	0xbd38d998	-0.04512939
214	0xbc740433	-0.014893579
215	0xbd8b4055	-0.0679938
216	0xbc58554a	-0.013203928
217	0x3d15747f	0.036488052
218	0xbd812740	-0.063063145
219	0x3caeef74	0.021354415
220	0x3c9d733a	0.019219983
221	0xbbcdf956	-0.0062858267
222	0xbb740af9	-0.0037237986
223	0xbdaed7c0	-0.08537245
224	0x3c6344e2	0.013871403
225	0xbd9676a3	-0.07346847
226	0x3e196a08	0.14981854
227	0x3d2b6ef9	0.04185388
228	0x3dd495e0	0.10380149
229	0x3df4fc30	0.119621634
230	0xbd68c928	-0.056832463
231	0xbca7dea4	-0.020491906
232	0x3ddd1d7b	0.107966386
233	0xbd8e291a	-0.06941433
234	0xbe158960	-0.14603186
235	0x3da040c3	0.07824852
236	0xbe5cffad	-0.21581908
237	0xbdfa0d68	-0.12209588
238	0x3d4c427c	0.049868092
239	0xbdf8ff63	-0.12158086
240	0xbdd56028	-0.10418731
241	0xbbb80837	-0.0056162137
242	0x3c80680b	0.015674612
243	0x3d5d9bb6	0.054103576
244	0x3cb1d0d5	0.021706024
245	0xbb85fe45	-0.004089149
246	0xbd3b4a80	-0.045725346
247	0x3d56bd54	0.05242665
248	0xbd6a37d3	-0.057182144
249	0xbd0757db	-0.03304277
250	0x3d8a2ec2	0.067471996
251	0xbde7ca22	-0.11317851
252	0xbd981e7c	-0.074276894
253	0xbd17dd94	-0.037076548
254	0xbe2ed92c	-0.17075032
255	0xbd44382d	-0.047905136

conv1.conv2.bias f4 [16]
0	0x3d7361e1	0.059419516
1	0x3d47c3b3	0.048770618
2	0xbd64c30d	-0.055850077
3	0x3cccbf7e	0.024993654
4	0xbcffc696	-0.031222623
5	0x3d84d12f	0.06485211
6	0xbda27c54	-0.0793387
7	0xbbdc270f	-0.0067185233
8	0x3d2b3fd9	0.041808937
9	0xbcaab5e9	-0.020838695
10	0xbda84415	-0.082161106
11	0x3d8ee88b	0.06977948
12	0x3d9232f7	0.07138627
13	0xbd83fa82	-0.06444265
14	0xbc2c937e	-0.010533212
15	0xbd23ecc4	-0.04002072

conv2.norm1.weight f4 [32]
0	0x3e802ad7	0.25032684
1	0x3f298c4f	0.6622972
2	0x3e5cc6b4	0.21560174
3	0x3eae997a	0.34101468
4	0x3f1047eb	0.5635974
5	0x3e968eac	0.29405725
6	0x3e6c5bce	0.23081896
7	0x3e110c47	0.1416484
8	0x3e683dec	0.22679871
9	0x3e48e899	0.19619979
10	0x3ed64adf	0.41853997
11	0x3f33188f	0.6995935
12	0x3f7dff4b	0.9921767
13	0x3f4ce1d5	0.8003209
14	0x3f457b9e	0.7714175
15	0x3e53aa2f	0.20670389
16	0x3f795208	0.97390795
17	0x3f36f741	0.7147103
18	0x3ecb0aa3	0.39656553
19	0x3e1d3754	0.15353137
20	0x3f2d713c	0.67750907
21	0x3eb132bc	0.3460902
22	0x3f3d827f	0.74027246
23	0x3f2d6ac2	0.67741024
24	0x3f69938e	0.91240776
25	0x3f5bedf1	0.85909945
26	0x3edf602d	0.43628064
27	0x3e0cc08d	0.13745327
28	0x3eb45d65	0.35227504
29	0x3eed9316	0.4640128
30	0x3f376063	0.7163145
31	0x3ef89f72	0.48559147

conv2.norm1.bias f4 [32]
0	0xbc228808	-0.009920128
1	0xbd484e47	-0.048902776
2	0xbd34a27e	-0.044100277
3	0xbd0ac4e5	-0.03387918
4	0xbbc3ab9b	-0.0059713847
5	0x3ca120bf	0.019668935
6	0xbc95bae9	-0.018277602
7	0xbc29c12e	-0.010360999
8	0x3c135438	0.008992247
9	0xbcfbbaaa	-0.030728657
10	0xbc8cde98	-0.017195985
11	0xbc5c38cc	-0.013441276
12	0xbb8e3c2f	-0.0043406705
13	0xbc54249c	-0.0129481815
14	0xbd226e37	-0.03965589
15	0x3c6a7632	0.0143104065
16	0xbd47a36f	-0.048739847
17	0xbd373d7d	-0.044736374
18	0xbc9ef0c2	-0.019401912
19	0x3bb471ca	0.005506729
20	0xbc949c44	-0.01814092
21	0x3bfb87a5	0.007676082
22	0x3cdc3047	0.02687849
23	0x3c490f9c	0.012271788
24	0xbb3b700b	-0.0028600718
25	0xbd95b9bf	-0.07310819
26	0xbd426d77	-0.047467675
27	0xbc310873	-0.010805237
28	0xbcb89fe9	-0.022537189
29	0x3b26e91c	0.0025468534
30	0xbc78cbe7	-0.015185333
31	0x3abf5e1f	0.0014600194

conv2.norm1.running_mean f4 [32]
0	0x3f0d338f	0.551568
1	0x3e8c3fb7	0.2739236
2	0xbd2bd585	-0.041951675
3	0xbe8c98a4	-0.27460206
4	0x3dd9bead	0.10632072
5	0x3eaf0d13	0.34189662
6	0xbd780069	-0.060547266
7	0xbeb282bb	-0.34865364
8	0xbf815632	-1.010443
9	0x3a9ed752	0.0012118614
10	0x3eb39a37	0.35078594
11	0xbec5d850	-0.38641596
12	0xbe68452a	-0.22682634
13	0xbb82393a	-0.003974107
14	0x3d9acded	0.075588085
15	0xbf852b54	-1.0403848
16	0xbcd80b8b	-0.026372692
17	0x3f16c8e5	0.5890029
18	0x3e054791	0.13015582
19	0x3e28595a	0.16440335
20	0xbf44f53c	-0.769367
21	0x3d48ee61	0.04905546
22	0xbe2496d0	-0.16073155
23	0xbdab456b	-0.0836285
24	0xbdf98c37	-0.12184947
25	0xbec50ac2	-0.3848477
26	0xbf11fa30	-0.5702238
27	0xbe890aa5	-0.26765934
28	0x3e6003b7	0.21876417
29	0x3e968c23	0.2940379
30	0xbef8b3d4	-0.48574698
31	0xbe3e35ae	-0.18575165

conv2.norm1.running_var f4 [32]
0	0x3cb95ad5	0.02262632
1	0x3cd9fd36	0.026609998
2	0x3cede7cd	0.029041195
3	0x3da9ca92	0.0829059
4	0x3d1e64c7	0.038670328
5	0x3cfd99a8	0.030957058
6	0x3ef6ff37	0.48241588
7	0x3e05a97a	0.13052931
8	0x3d58d158	0.05293402
9	0x3dd67e7c	0.10473344
10	0x3d65a147	0.05606201
11	0x3e214966	0.15750656
12	0x3da2d394	0.079505116
13	0x3e27d10a	0.16388336
14	0x3d85a582	0.06525709
15	0x3d82421d	0.06360266
16	0x3e0564cd	0.13026734
17	0x3dba7819	0.09104938
18	0x3db5479c	0.08851549
19	0x3d0359a7	0.03206792
20	0x3e96b48e	0.29434627
21	0x3d89fd48	0.06737763
22	0x3edf3e43	0.4360219
23	0x3cfa518a	0.030556459
24	0x3cf2c0aa	0.029632885
25	0x3d5ca99b	0.053872686
26	0x3d8092ea	0.06278022
27	0x3d9cd2b2	0.076573744
28	0x3ccc31bd	0.02492606
29	0x3dbbaac9	0.09163434
30	0x3e75d10e	0.2400553
31	0x3e0880a0	0.13330317

conv2.norm2.weight f4 [32]
0	0x3f3b8077	0.73242897
1	0x3f3cb21a	0.7370926
2	0x3eeb0f6a	0.45910197
3	0x39bd9bb2	0.0003616489
4	0x3f36fada	0.7147652
5	0x3f0f93c7	0.56084865
6	0x3f525147	0.8215527
7	0x3f1c3297	0.61014694
8	0x3edff194	0.43738997
9	0x3f2bb3ff	0.6707153
10	0x3f514745	0.81749374
11	0x3f280653	0.6563465
12	0x3f098a57	0.53726715
13	0x3f0d08df	0.5509166
14	0x3f058f6f	0.5217199
15	0x3ef7a295	0.48366228
16	0x3f4a5e05	0.7904971
17	0x3f1b553d	0.6067694
18	0x3e9326ed	0.28740636
19	0x3e5d9327	0.21638165
20	0x3e92e996	0.28693837
21	0x3eb96dc9	0.36216572
22	0x3dbf2f8f	0.09335243
23	0x3f158200	0.5840149
24	0x3eb8d2af	0.3609824
25	0x3f268ba6	0.65056837
26	0x3f33cf06	0.7023777
27	0x3f431e0b	0.76217717
28	0x3e0dcabe	0.13846871
29	0x3f24f0cb	0.6442992
30	0x3d6eb43c	0.058277354
31	0x3e8ef188	0.2791865

conv2.norm2.bias f4 [32]
0	0xbd5e6824	-0.054298535
1	0xbb806531	-0.003918313
2	0xbc1fa988	-0.009745009
3	0x3cad30b6	0.021141391
4	0xbcfe08f6	-0.031010132
5	0xbb5bcfdd	-0.0033540644
6	0xbca55a8d	-0.02018478
7	0xbcc14756	-0.023593586
8	0xbca2f97c	-0.019894354
9	0xbd02d0ec	-0.031937525
10	0xbceebd0a	-0.029142875
11	0xbc686979	-0.014185303
12	0xbb69c5a6	-0.0035670786
13	0xbd739cd9	-0.059475753
14	0xbb56c88c	-0.0032773344
15	0xbb6a37fd	-0.0035738938
16	0xbc897a73	-0.016782021
17	0xbca20722	-0.019778792
18	0xbd0a9135	-0.033829886
19	0xbdd6cdd6	-0.10488479
20	0xbc08d66b	-0.0083519025
21	0xbd2a75e5	-0.04161634
22	0xbced9c87	-0.029005302
23	0x3bbd2c92	0.0057731355
24	0xbba9f1f6	-0.0051863147
25	0xbcaf7b49	-0.021421092
26	0xbd0df6b9	-0.03465912
27	0xbdb61ebe	-0.08892582
28	0xbd0b5124	-0.03401293
29	0xbd6180e5	-0.055054564
30	0xbc4d0b9c	-0.012514975
31	0xbc92bb36	-0.017911535

conv2.norm2.running_mean f4 [32]
0	0x3ecb85ae	0.39750427
1	0x3f29c32d	0.6631344
2	0x3e83aa77	0.25715992
3	0xbe916009	-0.28393582
4	0x3db49a02	0.08818437
5	0xbf1067f8	-0.56408644
6	0xbe0076f2	-0.12545374
7	0xbd894f09	-0.06704528
8	0xbeacca39	-0.33748034
9	0x3ebfdffd	0.37475577
10	0x3f2fd082	0.6867753
11	0x3cf057bb	0.029338708
12	0x3e287c72	0.16453722
13	0x3eaf48ce	0.34235233
14	0xbe949f9e	-0.29028028
15	0xbef3b14e	-0.4759621
16	0xbeac0f36	-0.33605355
17	0xbf34c1da	-0.70608294
18	0x3d033969	0.032037172
19	0x3cc6a14e	0.024246838
20	0x3f0d2808	0.5513921
21	0x3e503696	0.20333323
22	0xbdb2feef	-0.08740031
23	0x3eddf736	0.4335267
24	0xbdfae97f	-0.12251567
25	0xbdfde89c	-0.12397882
26	0x3f4c49cf	0.7980012
27	0x3e8d5b29	0.27608612
28	0x3e2599af	0.16171907
29	0x3e053b6b	0.13010947
30	0x3e8c4fa4	0.2740451
31	0x3c8ba861	0.017048063

conv2.norm2.running_var f4 [32]
0	0x3ddbd2ac	0.10733542
1	0x3ea232bd	0.31679335
2	0x3ee4f960	0.44721508
3	0x3ed166ea	0.4089883
4	0x3eebfda7	0.4609196
5	0x3f9830cb	1.188989
6	0x3f9337af	1.1501368
7	0x3ef1819e	0.47169203
8	0x3e9c8f89	0.3057826
9	0x3ea3caf9	0.31990793
10	0x3f24d854	0.6439259
11	0x3e8b12df	0.27162835
12	0x3e87816e	0.26465935
13	0x3e875665	0.264331
14	0x3ec65d86	0.38743228
15	0x3f15a812	0.5845958
16	0x3ef42af5	0.47689024
17	0x3e35ab81	0.17741205
18	0x3d800324	0.06250599
19	0x3da54978	0.08070654
20	0x3e2620b5	0.16223414
21	0x3e2810ef	0.1641271
22	0x3d9ddd98	0.07708281
23	0x3de680cf	0.11255037
24	0x3dfd8762	0.12379338
25	0x3e0f7fd2	0.14013603
26	0x3e608deb	0.21929137
27	0x3df7f387	0.12106996
28	0x3d237ccd	0.03991394
29	0x3e277b90	0.16355729
30	0x3cbad611	0.022807153
31	0x3d387c05	0.04504015

conv2.conv1.weight f4 [32, 16, 3, 3]
0	0x3db57804	0.08860782
1	0x3dbd12d4	0.09232107
2	0x3d81b109	0.06332595
3	0x3a131769	0.00056110934
4	0x3dc4c65b	0.09608146
5	0x3dce2a76	0.100666925
6	0xbd312bde	-0.043254726
7	0x3dc95f87	0.098326735
8	0x3bfcf824	0.0077200104
9	0x3d92e046	0.07171683
10	0x3dbb1216	0.09134309
11	0xbd9629bf	-0.07332181
12	0xbbe2f0aa	-0.006925662
13	0x3dbf0aa2	0.093282
14	0xbd416978	-0.047219723
15	0x3da75fa8	0.08172542
16	0x3dd9f2d7	0.10642021
17	0x3c3834be	0.0112430435
18	0xbd5d9a2e	-0.054102115
19	0x3d9b0416	0.07569139
20	0xbd4925df	-0.049108382
21	0x3d0387a8	0.032111794
22	0xbc3995e9	-0.011327245
23	0xbd366bc8	-0.044536382
24	0xbd58b782	-0.05290938
25	0x3c136da1	0.008998306
26	0x3da975bf	0.082744114
27	0xbd5b9158	-0.053605407
28	0xbd872311	-0.06598485
29	0xbd8fdba1	-0.07024313
30	0xbce83440	-0.028345227
31	0x3c2e7312	0.010647552
32	0x3d2d1c09	0.042263065
33	0x3c0c8ef1	0.008579002
34	0x3d105c81	0.03524447
35	0xbda1f88f	-0.07908737
36	0x3d8db468	0.069191754
37	0xbbbe57f5	-0.005808825
38	0xbc269099	-0.010166311
39	0x3d02ecd4	0.03196414
40	0x3d12bb13	0.03582294
41	0x3d50b612	0.050954886
42	0xbbc710c7	-0.006074998
43	0xbcf7e8dd	-0.030262405
44	0x3db20ace	0.08693467
45	0xbd86a691	-0.06574739
46	0x3cc61d8e	0.024184015
47	0xbd1c1d20	-0.038113713
48	0x3c04c02e	0.00810246
49	0xbcce0cda	-0.025152612
50	0x3d6fc654	0.05853875
51	0x3db2673d	0.087110974
52	0x3d9b6a70	0.07588661
53	0x3da6e923	0.08149936
54	0xbb02be8a	-0.0019949996
55	0x3d9a165a	0.075237945
56	0xbdd7f6c6	-0.10545115
57	0xbb276c78	-0.002554683
58	0xbd3d14cf	-0.046162423
59	0xbde02795	-0.1094505
60	0x3d2147cf	0.039375123
61	0x3d21db6e	0.039515905
62	0xbbd3fa2f	-0.006469033
63	0x3bd7ee65	0.006589698
64	0x3cdd8f4d	0.02704587
65	0xbd0d7051	-0.03453094
66	0xbcd353d1	-0.025796803
67	0xbdaf506f	-0.08560263
68	0x3a06b9b9	0.0005139369
69	0x3d233589	0.039845977
70	0x3cd1933c	0.025582902
71	0xbd9e82c5	-0.07739786
72	0xbd0ca40d	-0.03433614
73	0xbd7a2c3d	-0.061077345
74	0x3d6ef5bd	0.058339823
75	0x3d9b8007	0.07592779
76	0x3cfce64b	0.030871531
77	0xbd363ab3	-0.044489574
78	0x3d1367d6	0.035987698
79	0x3d0f20cb	0.034943383
80	0x3da269b4	0.079303175
81	0xbb613cb4	-0.0034368457
82	0x3a8c19b3	0.0010688811
83	0xbd093b88	-0.03350404
84	0xbd17550d	-0.036946345
85	0x3d5036f8	0.050833672
86	0xbd28c79b	-0.041205984
87	0x3d1d640d	0.038425494
88	0x3d7f7d32	0.062375255
89	0x3d279358	0.040912002
90	0x3d3e8417	0.04651269
91	0xbd07bc51	-0.033138577
92	0x3d062a52	0.032755204
93	0x3d390b24	0.04517664
94	0xbcb00fdc	-0.021491937
95	0xbd955fd4	-0.072936684
96	0x3d58bf24	0.05291666
97	0x3d76820e	0.060182624
98	0x3d2575b2	0.040395446
99	0x3bee2855	0.0072679915
100	0x3dab75bb	0.08372065
101	0x3d8a7e31	0.0676235
102	0xbd9c1c97	-0.076226406
103	0x3da4acf3	0.080408
104	0xbd546ca3	-0.051861417
105	0xbca5027c	-0.020142786
106	0x3ca9d287	0.02073027
107	0xbc9fa5d6	-0.019488256
108	0xbd5b33a6	-0.053516053
109	0x3d5bfd98	0.053708643
110	0x3da19b4b	0.07890948
111	0xbc8e2f07	-0.017356409
112	0x3d9595cb	0.07303961
113	0x3d68b676	0.056814633
114	0x3c21544b	0.009846757
115	0xbcca257a	-0.024676073
116	0x3d6ef114	0.05833538
117	0xbd51ff40	-0.051268816
118	0x3aeda387	0.00181304
119	0x3c675d0d	0.014121306
120	0xbd97bf1f	-0.074095
121	0xbd0697f5	-0.03285976
122	0x3d2eac3a	0.042644717
123	0xbd4ad296	-0.049517237
124	0x3d6e4ee7	0.058180716
125	0xbdb21c33	-0.08696785
126	0x3c7b9263	0.0153547255
127	0x3d88c2d5	0.06677786
128	0x3d0e357e	0.034718983
129	0x3c4afb21	0.012388975
130	0x3da78d12	0.08181204
131	0xbd2fd0af	-0.042923626
132	0x3cf2829e	0.029603299
133	0x3db67509	0.089090414
134	0xbd6c1844	-0.05764033
135	0xbb8ff90e	-0.0043937033
136	0x3db0cb45	0.086325206
137	0xbd88929c	-0.066685885
138	0xbd700428	-0.058597714
139	0x3bb5eb27	0.005551714
140	0xbb57cf40	-0.0032929927
141	0xbd72ac84	-0.059246555
142	0x3da75c38	0.08171886
143	0xbd9c5e1e	-0.07635139
144	0xbcdee3df	-0.027208267
145	0x3d6964f2	0.056981035
146	0xbd08699f	-0.033303853
147	0xbdb440f6	-0.08801453
148	0xbb2de701	-0.0026535394
149	0x3c9a69c6	0.018849265
150	0x3d7eb0d6	0.062180363
151	0xbd862b67	-0.06551247
152	0x3d0d5fe8	0.03451529
153	0x3d930235	0.07178155
154	0xbd10dafb	-0.035365086
155	0x3d76c3be	0.060245268
156	0x3d9fc6ba	0.07801576
157	0x3a6b1880	0.00089681894
158	0x3d671d8c	0.056424662
159	0x3caa670f	0.020801095
160	0x3cce8511	0.025209935
161	0x3c2ce9cb	0.010553787
162	0x3d88533f	0.06656503
163	0x3d47e322	0.048800595
164	0xbd550142	-0.052003153
165	0x3b1f878f	0.0024342274
166	0xbc870395	-0.0164812
167	0xbbb19025	-0.0054187947
168	0xbd557c36	-0.05212041
169	0x3d9fb3ee	0.07797991
170	0xbc22e416	-0.009942075
171	0xbca2143f	-0.019785045
172	0x3d430c87	0.04761937
173	0x3d9ae823	0.07563808
174	0x3b1544b0	0.0022776537
175	0x3d9dd3ce	0.07706414
176	0xbcf14168	-0.029450133
177	0x3d97506d	0.07388387
178	0x3dc9015b	0.09814712
179	0x3d9ca3d7	0.076484375
180	0xbd6a00e5	-0.05712976
181	0xbd6ed3f4	-0.058307603
182	0xbd23ab92	-0.039958544
183	0x3c23fd6d	0.010009152
184	0xbdb0e316	-0.08637063
185	0xbdc77ead	-0.09740958
186	0x3da0da0a	0.07854088
187	0xba80d907	-0.0009830304
188	0xbd72a0d4	-0.05923541
189	0x3cbaf239	0.022820579
190	0x3cfa4494	0.030550279
191	0x3c6b48bc	0.014360603
192	0x3d4724b2	0.04861898
193	0xbd629b77	-0.055324044
194	0x3cb36f49	0.02190365
195	0x3d877056	0.06613223
196	0x3c133db7	0.008986882
197	0x3db1594a	0.08659609
198	0xbd794fd7	-0.060867157
199	0x3d9f55ee	0.07780062
200	0x3d48bd6f	0.049008783
201	0xbd172ef7	-0.036910024
202	0xbc6f0735	-0.014589121
203	0x3dabba33	0.08385124
204	0xbd3311cd	-0.043718148
205	0xbd8d7737	-0.06907504
206	0x3d54acc2	0.051922567
207	0xbd3481ad	-0.04406898
208	0xbd043209	-0.03227428
209	0x3d85d6d4	0.06535116
210	0x3d84df78	0.06487936
211	0xbcb2bc8d	-0.021818424
212	0x3d88a7e4	0.066726476
213	0xbd42261d	-0.04739963
214	0x3d7eff4c	0.06225519
215	0x3d8ef4ff	0.06980323
216	0xbcf9365f	-0.030421434
217	0x3b814486	0.003944936
218	0xbd7b8ba1	-0.061412457
219	0x3c8f85ad	0.017519796
220	0x3d8ed37a	0.0697393
221	0x3d765c52	0.060146637
222	0xbc72ffeb	-0.014831523
223	0x3d9d18e9	0.07670767
224	0x3c72f648	0.014829226
225	0x3d31b934	0.043389514
226	0xbbf03ff9	-0.007331845
227	0x3c8b1798	0.016979024
228	0x3c31a78a	0.010843167
229	0x3c0e7732	0.008695411
230	0x3d92b3f5	0.0716323
231	0x3db6f101	0.089326866
232	0xbc4e3946	-0.012586897
233	0x3d52041e	0.051273458
234	0xbd1e7144	-0.038682237
235	0xbd85e4e2	-0.065377966
236	0x3d0cbf31	0.03436202
237	0xbda92476	-0.082589075
238	0xbd7b8c7c	-0.061413273
239	0x3d8e500f	0.06948864
240	0x3cd0fd55	0.025511423
241	0xbd446f8c	-0.047957942
242	0x3d2c89f6	0.042123757
243	0x3d6f6371	0.058444444
244	0x3d473a87	0.0486398
245	0x3b9bf181	0.004759014
246	0x3d8fb415	0.0701677
247	0xbd54978e	-0.051902346
248	0x3da82835	0.08210794
249	0x3d4f0393	0.050540518
250	0xbd4466ee	-0.047949724
251	0xbda6d4fb	-0.081460916
252	0x3d90d6cc	0.07072219
253	0x3d70a1b7	0.058747973
254	0xbd5b89d2	-0.053598233
255	0x3da4004c	0.08007869

conv2.conv1.bias f4 [32]
0	0x3d368ba4	0.044566765
1	0xbd3c6ed3	-0.046004128
2	0xbd615e48	-0.055021554
3	0x3c5a2800	0.013315201
4	0x3d7978d9	0.060906265
5	0xbcd1210d	-0.025528455
6	0xbd164d35	-0.036694724
7	0xbd4b00cc	-0.049561307
8	0xbcd4d6c0	-0.025981307
9	0xbd7dd070	-0.06196636
10	0xbb44e44f	-0.003004331
11	0x3d2a6a65	0.041605372
12	0xbda0d494	-0.07853046
13	0xbd47ff62	-0.048827536
14	0xbd7d4cdb	-0.061840873
15	0xbd4772ed	-0.048693586
16	0xbce0fccd	-0.027464295
17	0x3c82d5be	0.01597106
18	0x3d3add48	0.045621186
19	0xbd08e830	-0.033424556
20	0x3d85debd	0.065366246
21	0xbd12c771	-0.035834733
22	0x3cd4b40c	0.02596476
23	0x3d9a502e	0.07534824
24	0x3b89afab	0.0042018495
25	0x3cd43705	0.025905142
26	0xbd7db24d	-0.06193762
27	0xbd2fe3e5	-0.042941947
28	0xbbb710f9	-0.00558674
29	0x3d982161	0.074282415
30	0x3c065047	0.008197851
31	0xbd769bcc	-0.060207173

conv2.conv2.weight f4 [32, 32, 3, 3]
0	0xbd18fa71	-0.037348215
1	0xbcf9f252	-0.030511055
2	0x3ca56fad	0.020194853
3	0xbd0164e2	-0.03159035
4	0x3d86166a	0.06547244
5	0x3b96b928	0.004599709
6	0x3cace44a	0.02110495
7	0xbca4343c	-0.020044439
8	0x3cbf9f02	0.02339125
9	0x3b29eb31	0.0025927539
10	0x3d278bfa	0.040904976
11	0x3d349945	0.04409148
12	0xbd032b4f	-0.032023724
13	0x3d5109eb	0.05103485
14	0xba9c6f08	-0.0011934945
15	0x3d3e7e13	0.046506952
16	0x3bb91a52	0.0056488896
17	0xbd347559	-0.044057224
18	0x3d84b516	0.06479852
19	0x3d0aaa3c	0.033853754
20	0xbcf9a96f	-0.0304763
21	0xbc150033	-0.009094286
22	0x3d6536c0	0.055960417
23	0xbc13d0da	-0.009021962
24	0xbc5fd2ed	-0.0136611285
25	0x3d0be1bd	0.034150828
26	0x3cb8881e	0.022525843
27	0xbb728782	-0.0037007038
28	0xbd0bf46b	-0.034168642
29	0x3d534eef	0.05158895
30	0xbd2d4aaf	-0.042307552
31	0x3d08c271	0.03338856
32	0xbcf0c178	-0.029389128
33	0xbd364e8b	-0.0445085
34	0xbd4aba78	-0.049494237
35	0x3d369509	0.044575725
36	0x3d272899	0.0408102
37	0x3cadf5f4	0.021235444
38	0x396fdcf1	0.00022875123
39	0x3d046ecc	0.032332227
40	0xbd07b208	-0.03312877
41	0x3c74db14	0.01494481
42	0x3d172d62	0.036908515
43	0xbc9989e8	-0.018742517
44	0x3c91cab8	0.01779686
45	0xbd29818f	-0.041383322
46	0xbd10f0a4	-0.035385743
47	0xbc85d811	-0.01633838
48	0xbc20ca29	-0.009813824
49	0xbd334507	-0.043767
50	0x3d2b5bfc	0.04183577
51	0x3d1ea66e	0.03873294
52	0x3c4927fb	0.0122775985
53	0x3cd0a934	0.025471307
54	0x3c49e9bb	0.012323792
55	0x3c2cdb00	0.010550261
56	0xbc2015ef	-0.009770854
57	0xbd219ed1	-0.0394581
58	0x3b1af1aa	0.0023642578
59	0x3b927ad6	0.0044702096
60	0xbcbaf787	-0.022823108
61	0xbd25b5e4	-0.040456668
62	0xbcbffad8	-0.023435041
63	0xbcca9b13	-0.024732148
64	0x3d9063a0	0.07050252
65	0x3d823694	0.06358066
66	0x3d4f4794	0.05060537
67	0x3d9f9a07	0.0779305
68	0x3c967173	0.018364644
69	0x3da1d609	0.07902152
70	0x3ca0b7ff	0.019618986
71	0x3d18210f	0.037140902
72	0x3d8a552e	0.06754528
73	0xbcfa51d9	-0.030556606
74	0x3d984cb2	0.074365035
75	0x3d501869	0.05080453
76	0xbba11414	-0.0049157236
77	0x3c0bc7df	0.00853154
78	0x3d5dbab7	0.054133143
79	0x3be7987e	0.007067739
80	0xbc1df87d	-0.009641764
81	0x3ba12e9a	0.0049188854
82	0x3d318542	0.043339975
83	0xbd0686d6	-0.032843433
84	0x3d6b2504	0.057408348
85	0x3d31475d	0.043280948
86	0x3d123193	0.03569181
87	0x3d4c940c	0.049945876
88	0xbb38d9a3	-0.0028205893
89	0xbd3856cd	-0.045004655
90	0xbd41357f	-0.04717016
91	0x3d60f6d6	0.0549229
92	0x3c63302c	0.013866466
93	0x3a868c15	0.0010265136
94	0x3d11a2b8	0.03555557
95	0xbd6887a7	-0.056769993
96	0xbd4c077a	-0.049811818
97	0x3cc98b7a	0.02460264
98	0xbce18bd3	-0.027532494
99	0x3a15b907	0.000571147
100	0x3cc970b5	0.024589876
101	0xbb5a6717	-0.0033325606
102	0x3d036433	0.03207798
103	0x3ce03e61	0.027373495
104	0x3d871486	0.065957114
105	0x3d3b9339	0.0457947
106	0xbcfb37dd	-0.030666286
107	0x3d14e739	0.036353324
108	0x3c3b6caa	0.011439482
109	0x3d511aa7	0.05105081
110	0xbcbc5b7e	-0.022992846
111	0x3c1674e2	0.0091831405
112	0x3cd615ed	0.026133502
113	0x3c2d8c7c	0.010592576
114	0x3d1981d4	0.03747733
115	0xbc7c3554	-0.015393574
116	0x3c7a9d55	0.0152963
117	0xbc282202	-0.010262014
118	0x3c35c26d	0.011093718
119	0xbc5bac07	-0.013407714
120	0x3d1dd06b	0.03852884
121	0x3c0dc392	0.008652585
122	0xbc8d2fa1	-0.017234625
123	0x3c01a95f	0.007913916
124	0x3b2937ef	0.0025820693
125	0x3c8f1c53	0.01746956
126	0x3ca647f1	0.020297976
127	0xbc984d3f	-0.018591521
128	0x3c41152b	0.011784832
129	0xbccab6e1	-0.024745407
130	0xbcabf5f1	-0.020991297
131	0xbd19411c	-0.03741561
132	0xbc2b4dca	-0.010455558
133	0x3c97ea45	0.018544326
134	0x3d0c66a9	0.03427759
135	0xbc45c45f	-0.012070744
136	0x3bee0618	0.00726391
137	0x3caaedcb	0.020865342
138	0x3aa421da	0.0012522296
139	0x3d317192	0.0433212
140	0xbc935c0c	-0.017988227
141	0xbd3cedb1	-0.046125118
142	0x3d514266	0.051088713
143	0x3b710e12	0.0036782068
144	0x3d89ac63	0.06722333
145	0xbcd0c9f0	-0.025486916
146	0xbc82694c	-0.01591935
147	0x3d6bb7fa	0.0575485
148	0x3c80e8ee	0.01573607
149	0x3b36b76f	0.002788033
150	0xbd2e614d	-0.042573262
151	0x3bd1297f	0.0063831205
152	0x3c368cfe	0.011142014
153	0x3d0ec2e4	0.03485383
154	0xbcbdfb28	-0.02319105
155	0x3c08b299	0.008343362
156	0x3d00cfcb	0.031448167
157	0xbd1ab86b	-0.03777353
158	0x3d1f930f	0.038958605
159	0x3d585b42	0.052821405
160	0x3bd755b2	0.006571495
161	0x3cf14273	0.02945063
162	0x3c552012	0.013008134
163	0x3d25c9f3	0.040475797
164	0x3c8dff6b	0.017333707
165	0xbd3b3063	-0.045700442
166	0x3c98cb95	0.018651763
167	0x3d4aec50	0.04954177
168	0x3d50f2d1	0.051012818
169	0x3c89afef	0.016807524
170	0xbd3ac578	-0.045598477
171	0xbcedcb74	-0.029027678
172	0xbc6f570c	-0.014608156
173	0x3d13dc0c	0.036098525
174	0x3c58b132	0.01322584
175	0x3d194c52	0.0374263
176	0x3cc095d9	0.023508953
177	0x3cc6acd4	0.024252333
178	0xbbb92e35	-0.0056512603
179	0xbd6f1c27	-0.058376458
180	0x3d921026	0.07131986
181	0xbb69e9d8	-0.003569236
182	0xbc04b504	-0.008099798
183	0x3d8505f6	0.064952776
184	0x3d6437eb	0.05571739
185	0xbcae122d	-0.021248901
186	0x3d89a5f1	0.06721104
187	0x3b0e5832	0.002172005
188	0xbd0fd040	-0.035110712
189	0xbd69827d	-0.05700921
190	0x3d04f07b	0.032455903
191	0xbc8e063f	-0.017336963
192	0x3c3396a0	0.010961205
193	0xbba4a9f5	-0.0050251433
194	0x3d4470d3	0.04795916
195	0xbd51d61e	-0.05122959
196	0xbd269854	-0.040672615
197	0x3cfa3ee6	0.03054757
198	0x3d46530a	0.048419036
199	0xbd6350d7	-0.055497017
200	0xbd37c5a6	-0.044866227
201	0x3cbe343e	0.02321827
202	0x3c01b08d	0.007915628
203	0xba427f40	-0.00074194744
204	0xbccd30dd	-0.025047714
205	0xbd2b2e6b	-0.041792314
206	0x3c46f981	0.012144447
207	0x3ce33d16	0.027739089
208	0x3d2c49a2	0.04206241
209	0x3d4cb048	0.049972802
210	0xbb9ba28d	-0.004749602
211	0xbcb19c8d	-0.021681095
212	0xbd229dc4	-0.03970124
213	0x3cbf9738	0.023387536
214	0xbcb4f40a	-0.022089023
215	0xbc8f91c4	-0.017525561
216	0xbcc5a433	-0.024126148
217	0x3bc37906	0.005965355
218	0xb9ccb61b	-0.0003904559
219	0xbd14322a	-0.036180653
220	0xbc8d097e	-0.01721644
221	0x3a836ffa	0.0010027878
222	0xbd020a72	-0.031748243
223	0xbd12a5a3	-0.035802495
224	0xbd0a6bbe	-0.033794157
225	0x3d14e8c9	0.036354814
226	0x3c587dd5	0.013213594
227	0x3d161c9b	0.036648374
228	0x39de54c5	0.00042406298
229	0xba7fc245	-0.00097564264
230	0x3d980a0e	0.07423793
231	0x3bf70968	0.007538963
232	0x3c0abd9f	0.008468061
233	0xbc89f84c	-0.01684203
234	0xbc8695fb	-0.016428938
235	0xbcb7c363	-0.022432035
236	0xbc6098cd	-0.013708306
237	0x3d0e31c4	0.03471543
238	0x3d40d890	0.04708153
239	0xbd09573f	-0.03353047
240	0xbcae854d	-0.021303797
241	0x3d2fc579	0.042912934
242	0x3d8e0177	0.06933873
243	0x3d6757a3	0.05648006
244	0x3cb7b9ab	0.0224274
245	0xba760b2d	-0.00093858206
246	0xbb912771	-0.0044297506
247	0x3c45f908	0.012083299
248	0xbb9d3b96	-0.004798363
249	0x3d0dcd84	0.034619823
250	0xbc69cbd3	-0.014269787
251	0xbc979538	-0.01850377
252	0x3c5663f6	0.013085356
253	0xbbf6826b	-0.0075228713
254	0x3d57dfb4	0.052703574
255	0x3d0a9592	0.033834048

conv2.conv2.bias f4 [32]
0	0x3cdb94dc	0.02680438
1	0xbc46a104	-0.01212335
2	0xbd2afaf3	-0.04174323
3	0xbcba3e8f	-0.022734908
4	0x3c051de9	0.008124807
5	0x3d2fa652	0.042883225
6	0x390a555a	0.00013192502
7	0x3d4ff8cc	0.05077438
8	0xbc597325	-0.0132720815
9	0x3d04787c	0.032341465
10	0xbd49fcc6	-0.04931333
11	0x3d634869	0.055488978
12	0x3bfa6bb5	0.007642234
13	0xbcd2ba85	-0.025723705
14	0xbd062750	-0.032752335
15	0x3d2b4696	0.041815363
16	0xbd3f4230	-0.04669398
17	0x3d1c98fd	0.03823184
18	0x3c1f3321	0.00971678
19	0xbc0b299a	-0.008493805
20	0x3c565b37	0.013083271
21	0x3c86d740	0.016460061
22	0x3a722351	0.000923683
23	0xbc8ef5c7	-0.01745118
24	0xbc5ec665	-0.013597106
25	0x3c3408a8	0.010988392
26	0x3c8b7856	0.017025154
27	0xbd351118	-0.044205755
28	0xbc9883a6	-0.018617462
29	0xbd1c8deb	-0.03822128
30	0xbd47c544	-0.04877211
31	0xbb353351	-0.0027648995

conv3.norm1.weight f4 [32]
0	0x3f652fff	0.8952636
1	0x3df88d70	0.12136352
2	0x3f7fcb45	0.9991954
3	0x3f59b88d	0.8504723
4	0x3f618d7b	0.8810651
5	0x3f7a7aac	0.9784343
6	0x3f4df71c	0.80455184
7	0x3e9a3dc6	0.30125254
8	0x3e93a06e	0.28833336
9	0x3efef262	0.49794298
10	0x3eb6b464	0.35684502
11	0x3dd05b50	0.101736665
12	0x3f43b2a9	0.7644449
13	0x3ef186f2	0.47173268
14	0x3ed861e8	0.42262197
15	0x3f65cfbf	0.8977012
16	0x3d180c40	0.037121058
17	0x3ed06ca4	0.40707886
18	0x3f5f268b	0.87168187
19	0x3f074072	0.5283271
20	0x3f6d7bfe	0.9276732
21	0x3f171ed1	0.590314
22	0x3e8b029c	0.27150428
23	0x3ef9e1d2	0.488051
24	0x3f07026a	0.5273806
25	0x3ea5437c	0.3227805
26	0x3f2ca301	0.67436224
27	0x3e39540c	0.18098468
28	0x3f2e7873	0.6815254
29	0x3f626e0f	0.88449186
30	0x3f27c625	0.6553672
31	0x3f269b63	0.6508085

conv3.norm1.bias f4 [32]
0	0x00000000	0.0
1	0x00000000	0.0
2	0x00000000	0.0
3	0x00000000	0.0
4	0x00000000	0.0
5	0x00000000	0.0
6	0x00000000	0.0
7	0x00000000	0.0
8	0x00000000	0.0
9	0x00000000	0.0
10	0x00000000	0.0
11	0x00000000	0.0
12	0x00000000	0.0
13	0x00000000	0.0
14	0x00000000	0.0
15	0x00000000	0.0
16	0x00000000	0.0
17	0x00000000	0.0
18	0x00000000	0.0
19	0x00000000	0.0
20	0x00000000	0.0
21	0x00000000	0.0
22	0x00000000	0.0
23	0x00000000	0.0
24	0x00000000	0.0
25	0x00000000	0.0
26	0x00000000	0.0
27	0x00000000	0.0
28	0x00000000	0.0
29	0x00000000	0.0
30	0x00000000	0.0
31	0x00000000	0.0

conv3.norm1.running_mean f4 [32]
0	0xbe174b73	-0.14774875
1	0x3e7bf101	0.24603654
2	0x3e05eca9	0.1307856
3	0xbe207d9b	-0.15672915
4	0xbe15ecc2	-0.14641097
5	0xbd6d7229	-0.0579702
6	0xbd5333fb	-0.051563244
7	0x3e94a776	0.29034013
8	0xbe6341b4	-0.22193033
9	0xbe7c257b	-0.24623673
10	0xbe608986	-0.21927461
11	0xbe95143f	-0.2911701
12	0xbd633e12	-0.055479117
13	0x3cd37b45	0.025815615
14	0xbd2e7866	-0.04259529
15	0xbf00a2a0	-0.50248146
16	0xbdc95a7c	-0.09831712
17	0x3c1cbb54	0.009566147
18	0xbc428a79	-0.011873835
19	0xbda9979a	-0.08280869
20	0xbef5b00a	-0.4798587
21	0x3da635bc	0.08115718
22	0x3d7db58d	0.06194072
23	0x3e38c493	0.18043737
24	0xbe6922f1	-0.22767235
25	0x3c29f6a4	0.010373745
26	0xbe3a2793	-0.18179159
27	0xbd5a16e7	-0.053244498
28	0xbd312be4	-0.043254748
29	0x3d9fa07f	0.07794284
30	0x3e6bcd60	0.23027563
31	0x3ef6204c	0.48071516

conv3.norm1.running_var f4 [32]
0	0x3d364284	0.044497028
1	0x3d9d9df0	0.0769614
2	0x3c872e52	0.01650158
3	0x3d0f0508	0.034916908
4	0x3d963da6	0.07335977
5	0x3dd36c61	0.10323406
6	0x3c96b045	0.018394599
7	0x3cd04b98	0.02542667
8	0x3c65dcc5	0.014029686
9	0x3d125067	0.03572121
10	0x3e39e00c	0.18151873
11	0x3e131079	0.14361753
12	0x3c1416d7	0.009038649
13	0x3d3eb634	0.04656048
14	0x3d54266a	0.051794447
15	0x3d2fa9ae	0.04288643
16	0x3d86378c	0.065535635
17	0x3c6f7438	0.014615111
18	0x3d5b442f	0.05353182
19	0x3d08b767	0.03337803
20	0x3d873f09	0.0660382
21	0x3d433fb6	0.04766818
22	0x3d9644b4	0.07337323
23	0x3c976f12	0.01848558
24	0x3c89e240	0.016831517
25	0x3bc62d63	0.006047891
26	0x3ddf3f6c	0.10900769
27	0x3cacbb29	0.021085339
28	0x3cad290a	0.021137733
29	0x3d609029	0.05482498
30	0x3d68951a	0.05678282
31	0x3de00a98	0.109395206

conv3.norm2.weight f4 [32]
0	0x3eb7101c	0.35754478
1	0x3ed5a0fa	0.41724378
2	0x3d7cfc60	0.06176412
3	0x3f3e34eb	0.74299496
4	0x3e2161d4	0.15759975
5	0x3eae59c8	0.34052873
6	0x3f30a0c0	0.68995285
7	0x3eb77568	0.3583176
8	0x3f385e74	0.72019124
9	0x3e2bf96c	0.16794366
10	0x3f760092	0.9609462
11	0x3f3af41f	0.7302875
12	0x3e8e75c6	0.2782423
13	0x3e8ca52e	0.27469772
14	0x3e99bd44	0.3002721
15	0x3f283979	0.65712696
16	0x3f4b249a	0.79352725
17	0x3ec500f4	0.3847729
18	0x3f32b2be	0.6980399
19	0x3e6c1584	0.23055083
20	0x3f24b17f	0.6433334
21	0x3f2ea293	0.6821682
22	0x3f798155	0.9746297
23	0x3f7158db	0.9427621
24	0x3ee6177e	0.44939798
25	0x3f7d4cac	0.98945117
26	0x3ea516f2	0.32244068
27	0x3eb78eb8	0.35851073
28	0x3eaa4c52	0.33261353
29	0x3eb907d0	0.36138773
30	0x3e97e262	0.29664904
31	0x3ee5ad1e	0.4485864

conv3.norm2.bias f4 [32]
0	0x00000000	0.0
1	0x00000000	0.0
2	0x00000000	0.0
3	0x00000000	0.0
4	0x00000000	0.0
5	0x00000000	0.0
6	0x00000000	0.0
7	0x00000000	0.0
8	0x00000000	0.0
9	0x00000000	0.0
10	0x00000000	0.0
11	0x00000000	0.0
12	0x00000000	0.0
13	0x00000000	0.0
14	0x00000000	0.0
15	0x00000000	0.0
16	0x00000000	0.0
17	0x00000000	0.0
18	0x00000000	0.0
19	0x00000000	0.0
20	0x00000000	0.0
21	0x00000000	0.0
22	0x00000000	0.0
23	0x00000000	0.0
24	0x00000000	0.0
25	0x00000000	0.0
26	0x00000000	0.0
27	0x00000000	0.0
28	0x00000000	0.0
29	0x00000000	0.0
30	0x00000000	0.0
31	0x00000000	0.0

conv3.norm2.running_mean f4 [32]
0	0xbea443d3	-0.32082996
1	0x3e4a7552	0.19771317
2	0x3ea4575c	0.320979
3	0x3d44b5c0	0.048024893
4	0xbbb9a746	-0.0056656925
5	0xbe7598e5	-0.23984106
6	0x3e777bd5	0.24168332
7	0xbd26f568	-0.04076138
8	0x3d1e9715	0.0387183
9	0x3b09e41d	0.0021040507
10	0x3e3c64f9	0.18397893
11	0xbd2818c2	-0.041039236
12	0x3de62732	0.11237945
13	0x3db37b49	0.08763749
14	0x3e2a67d5	0.16641171
15	0x3e1a3922	0.15060857
16	0xbe3d1e43	-0.18468575
17	0xba75581a	-0.00093591365
18	0xbdaf9645	-0.085735835
19	0x3ced01c8	0.028931513
20	0x3d9ab478	0.07553953
21	0xbe32611c	-0.17419857
22	0x3e1bbba0	0.15208292
23	0x3e05bb59	0.13059749
24	0x3edc664d	0.430468
25	0xbc3755da	-0.011189902
26	0x3d6e9cc1	0.05825496
27	0xbe1e8e18	-0.15483892
28	0xbd4e92b4	-0.050432876
29	0xbcc06bbd	-0.023488874
30	0xbe28b7a5	-0.16476305
31	0x3def8930	0.11696088

conv3.norm2.running_var f4 [32]
0	0x3d18316c	0.037156507
1	0x3c888500	0.016664982
2	0x3dcc2b6e	0.09969221
3	0x3d026e64	0.031843558
4	0x3ca2de8a	0.019881506
5	0x3ce01329	0.027352886
6	0x3d7490f8	0.059708565
7	0x3ce2a386	0.027665865
8	0x3d527996	0.051385485
9	0x3c8f942d	0.01752671
10	0x3e1f21d8	0.15540254
11	0x3ca2e979	0.019886719
12	0x3d80d88f	0.06291305
13	0x3d00d811	0.031456057
14	0x3c807028	0.01567848
15	0x3dee9b64	0.11650732
16	0x3c2c65c1	0.010522307
17	0x3c698255	0.014252265
18	0x3caa5ec6	0.020797145
19	0x3c9b0f13	0.018928086
20	0x3d7b48ba	0.061348654
21	0x3da00f82	0.07815458
22	0x3cd8ad8d	0.026449943
23	0x3c7b679d	0.015344528
24	0x3dc5ca86	0.09657769
25	0x3d07c495	0.03314646
26	0x3d349d24	0.044095173
27	0x3cc77664	0.024348445
28	0x3d3db448	0.046314508
29	0x3cd341ab	0.025788149
30	0x3cf3ab09	0.029744642
31	0x3d02e547	0.031956937

conv3.conv1.weight f4 [32, 32, 3, 3]
0	0x3c0381d4	0.008026559
1	0xbd6a3856	-0.057182632
2	0xbd58b050	-0.05290252
3	0x3d3a054b	0.045415204
4	0xbd29dddc	-0.041471347
5	0x3d38f785	0.045157928
6	0x3cd85b52	0.026410732
7	0xbd1f744c	-0.03892927
8	0xbbd9f990	-0.0066520646
9	0xbd17a6ce	-0.03702431
10	0x3d46f3e9	0.048572455
11	0xbb346290	-0.0027524568
12	0x3d258477	0.04040953
13	0xbcfe5865	-0.03104801
14	0xbd4d8b16	-0.05018147
15	0x3c909f42	0.017654065
16	0x3d0b8ea5	0.034071583
17	0x3d0b1233	0.033952903
18	0x3ccc313a	0.024925817
19	0x3c241444	0.010014597
20	0x3d0cf779	0.034415696
21	0x3d1ef68d	0.038809348
22	0x3d51368f	0.05107742
23	0x3cc2cca2	0.023779217
24	0x3b8877e8	0.0041646846
25	0xbcacfcca	-0.021116633
26	0x3d439329	0.047747765
27	0xbae79640	-0.0017668679
28	0xbce32aa1	-0.027730288
29	0xbcc13c30	-0.02358827
30	0xbd38c884	-0.0451131
31	0x3d43c14b	0.04779176
32	0x3cd63272	0.026147101
33	0xbd652e62	-0.055952437
34	0xbbf84b30	-0.0075773224
35	0xbd4372cf	-0.047716912
36	0x3ab17f60	0.0013541989
37	0x3d2ef151	0.042710606
38	0xbcfaf220	-0.030633032
39	0xbd5e10e9	-0.054215346
40	0xbc9a5b26	-0.018842291
41	0x3bda5858	0.0066633634
42	0x3bbbb5c8	0.005728457
43	0x3c9002de	0.017579492
44	0xbd379ab8	-0.044825286
45	0xbd27999c	-0.040917978
46	0x3d1cc5e7	0.038274672
47	0x3bbc0e68	0.005739022
48	0x3ccdf216	0.02513985
49	0xbd422f7a	-0.04740856
50	0x3c9d8196	0.01922683
51	0xbd083501	-0.033253673
52	0xbcf5b893	-0.029995238
53	0xbd50ceff	-0.050978657
54	0xbd6eb873	-0.058281373
55	0xbcf2d885	-0.02964426
56	0xbcae35b6	-0.021265846
57	0x3d4d7411	0.050159518
58	0xbc5887ec	-0.013216
59	0xbc1e5684	-0.009664182
60	0xbcc78216	-0.024354022
61	0xbbcea400	-0.0063061714
62	0xbcabf04a	-0.020988602
63	0xbcd66f40	-0.026176095
64	0xbaad0080	-0.0013199002
65	0x3d0b2eeb	0.03398029
66	0x3c466bcc	0.012110662
67	0x3d232fa7	0.039840367
68	0xbb8b6dd0	-0.004255034
69	0xbaf011c0	-0.0018315837
70	0xbd30cfb0	-0.043166816
71	0xbc4cce80	-0.012500405
72	0x3d2cecdd	0.042218078
73	0x3b461a10	0.0030227937
74	0xbd1bbe88	-0.0380235
75	0xbd149ede	-0.03628432
76	0xbd0fea0a	-0.035135306
77	0x3d2dc9f1	0.042428914
78	0x3cd7bd76	0.02633546
79	0x3cc97bfa	0.02459525
80	0x3c1fad3c	0.009745892
81	0x3abb2420	0.0014277734
82	0x3d1f70cf	0.038925942
83	0xbc5321c4	-0.012886468
84	0xbd2c6d94	-0.04209669
85	0x3b88dca8	0.004176695
86	0x3b909af8	0.004413005
87	0x3d35275f	0.044227
88	0x3d3f16bb	0.046652537
89	0x3d37847d	0.044804085
90	0x3d20dced	0.03927319
91	0xbd6690f9	-0.0562906
92	0x3c493da4	0.012282763
93	0xbb4f9440	-0.0031674057
94	0x3baccd48	0.005273495
95	0x3ce4abca	0.027913947
96	0x3c38692c	0.011255544
97	0x3d1033f1	0.035205785
98	0xb97f8c00	-0.00024370849
99	0xbd22779e	-0.039664857
100	0x3d3c6795	0.04599722
101	0xbd1b8f00	-0.037978172
102	0xbbc95a30	-0.0061447844
103	0x3cbdc65e	0.023165878
104	0xbd04a067	-0.032379534
105	0x3d4e4b0f	0.05036455
106	0x3c902d2e	0.017599668
107	0x3d528e1b	0.051405054
108	0xbd0ed79c	-0.03487359
109	0xbd1e4a98	-0.038645357
110	0x3b864ce8	0.0040985234
111	0x3d562a59	0.05228648
112	0xbd237aed	-0.039912153
113	0xbd6402fb	-0.055666905
114	0xbd3cfa24	-0.04613699
115	0xbcef158f	-0.029185085
116	0x3d267977	0.04064318
117	0xbcf6301e	-0.030052241
118	0xb88b0c00	-6.630272e-05
119	0x3cd2780e	0.025692012
120	0xbd673d5c	-0.056455
121	0x3a90ce40	0.0011047795
122	0x3d1c180f	0.03810888
123	0xbd2395a0	-0.039937615
124	0xbb473e00	-0.0030401945
125	0xbc81eb2e	-0.015859213
126	0x3ced797a	0.028988589
127	0xbd19190b	-0.0373774
128	0xbcf64022	-0.030059878
129	0xbd1688e0	-0.036751628
130	0x3d0bea49	0.03415898
131	0xbd6d6efb	-0.057967167
132	0x3d0e3869	0.034721766
133	0x3c8cd412	0.017190967
134	0x3d00fe05	0.031492252
135	0xbd445402	-0.04793168
136	0x3d22eaf5	0.039774854
137	0x3d55de8b	0.052214187
138	0xbbbe6248	-0.005810056
139	0xbd587d3a	-0.0528538
140	0x3d58a301	0.052889828
141	0x3cb73916	0.022366088
142	0x3d5d4f6f	0.054030832
143	0x3d623417	0.055225458
144	0x3bde92b8	0.0067923926
145	0xbcdcc58a	-0.026949663
146	0x3cd5ca46	0.026097428
147	0xbd3cb7d6	-0.046073757
148	0x3ce83e12	0.02834991
149	0xbd313136	-0.04325982
150	0xbd4777e1	-0.04869831
151	0x3d32b387	0.043628242
152	0x3c57118c	0.013126742
153	0x3b89f468	0.0042100437
154	0xbcfbdc6d	-0.030744756
155	0x3d3702df	0.044680472
156	0xbca56a26	-0.020192217
157	0xbc827fda	-0.015930105
158	0xbc9a50f4	-0.01883743
159	0x3d0dc269	0.034609232
160	0xbce497ac	-0.027904354
161	0xbb450440	-0.0030062348
162	0xbd4ca92e	-0.04996603
163	0xbc85f182	-0.016350511
164	0xbd70143a	-0.05861304
165	0xbce0b73c	-0.027431123
166	0x3cfdbe3a	0.030974496
167	0x3cf9e2de	0.030503687
168	0xbd513928	-0.0510799
169	0xbb8c0c08	-0.004273895
170	0x3d1d9c73	0.03847928
171	0x3d0cce65	0.03437652
172	0x3bb03028	0.0053768344
173	0xbd306be6	-0.04307165
174	0x3c911e9a	0.017714787
175	0xbd07b5ba	-0.033132292
176	0xbcfac10a	-0.030609626
177	0x3bb16e18	0.0054147355
178	0xbd3e50ab	-0.04646365
179	0xbd39e0be	-0.045380346
180	0xbd5500e8	-0.052002817
181	0xbbd2b398	-0.0064301006
182	0xbd68b16a	-0.05680982
183	0xbd1232a2	-0.03569282
184	0x3d300a4d	0.042978574
185	0x3d6b8e5f	0.057508823
186	0x3c675764	0.014119957
187	0x3cd58676	0.026065093
188	0xbd3a7cda	-0.045529224
189	0x3d484629	0.048895035
190	0xbd189e0d	-0.037260104
191	0xbc7c1584	-0.015385989
192	0x3cf8339e	0.03029805
193	0xbd4df023	-0.05027784
194	0x3c55a75c	0.01304039
195	0x3d50c10f	0.050965365
196	0xbd1427c0	-0.03617072
197	0x3c6c5aa4	0.014425907
198	0x3cbf0226	0.023316454
199	0x3d2f5bab	0.04281203
200	0x3d172b97	0.036906805
201	0x3cb8d346	0.02256168
202	0x3d457339	0.048205588
203	0xbd06bf41	-0.032897238
204	0xbd328554	-0.043584183
205	0x3c6d8a74	0.014498342
206	0xbd5cc10d	-0.053895045
207	0x3c73f8cc	0.014890861
208	0x3b795b30	0.0038048737
209	0xbc91894c	-0.017765664
210	0xbc8c1bae	-0.017103042
211	0xbd3e6c20	-0.046489835
212	0xbce93989	-0.028469818
213	0x3ba7bbb8	0.0051188134
214	0x3c7d44b4	0.015458275
215	0xbd4a85ff	-0.049444195
216	0x3d0b24bf	0.03397059
217	0xbc0eef90	-0.008724108
218	0xbc5256d4	-0.012838084
219	0xbd2607e7	-0.04053488
220	0x3cccbb4e	0.024991658
221	0xbd54a51a	-0.051915266
222	0x3cc2223a	0.023697961
223	0x3d665041	0.05622888
224	0xbd20856a	-0.039189734
225	0xbd4d2bdf	-0.050090667
226	0x3ca98386	0.020692598
227	0xbbd40e88	-0.006471459
228	0x3d53c513	0.051701616
229	0xbce41eaf	-0.027846662
230	0xbc76d36c	-0.015065055
231	0x3d2ed37b	0.042682152
232	0xbc13bbd8	-0.009016953
233	0x3d085a09	0.03328899
234	0xbce22eee	-0.027610268
235	0x3d1bb6cd	0.03801613
236	0xbd0dee9e	-0.03465139
237	0x3cbe3b96	0.023221772
238	0xbc4c162c	-0.012456458
239	0xba312340	-0.0006757267
240	0xbd4fc003	-0.050720226
241	0x3d6f0589	0.058354888
242	0x3c1b514c	0.009479832
243	0x3cfee332	0.031114195
244	0xbc445a30	-0.011984393
245	0xba5022c0	-0.00079397485
246	0x3d58ff7d	0.052978028
247	0x3d257d59	0.040402744
248	0x3cbc3c2e	0.022977915
249	0xbce3e79a	-0.027820397
250	0xbd325687	-0.04353955
251	0xbd55dd7f	-0.05221319
252	0x3aacd4e0	0.0013186
253	0x3d2a069d	0.041510213
254	0xbd4e4a8f	-0.050364073
255	0x3d155183	0.03645469

conv3.conv1.bias f4 [32]
0	0xbbc84220	-0.0061113983
1	0xbd19229a	-0.037386514
2	0x3ae1bd80	0.0017222613
3	0xbd0b9140	-0.034074068
4	0xbcb21caa	-0.021742184
5	0xbcd2b6bc	-0.0257219
6	0x3cb33c6e	0.021879401
7	0x3b5b6d80	0.0033482015
8	0x3d590f99	0.05299339
9	0xbc743968	-0.014906265
10	0x3d0b120d	0.03395276
11	0xbd43c8ce	-0.047798924
12	0x3cfd834e	0.0309464
13	0xbd05adae	-0.032636337
14	0xbd42b2ef	-0.047533926
15	0xbd01d26e	-0.031694822
16	0xbd2e6f54	-0.04258664
17	0xbd5f32d1	-0.05449182
18	0x3c9a78ba	0.018856395
19	0x3c5b449c	0.013383057
20	0xbd200959	-0.039071415
21	0x3d18892d	0.037240196
22	0xbcbe290c	-0.023212932
23	0x3c839da2	0.016066376
24	0x3cbb17aa	0.022838432
25	0xbbdda508	-0.006764058
26	0x3d6ff63b	0.058584433
27	0xba425280	-0.0007412806
28	0xbd48c8be	-0.049019568
29	0xbd49394c	-0.04912691
30	0x3d51fe95	0.05126818
31	0xbc9bdb36	-0.019025426
